…
Check nodes and clean them of stray processes
---------------------------------------------
Checking node qb043 17:06:28 
Done clearing all the allocated nodes
------------------------------------------------------
Concluding PBS prologue script - 31-Mar-2018 17:06:28
------------------------------------------------------
-------------------Load model---------------------------
_________________________________________________________________
Layer (type)                 Output Shape              Param #   
=================================================================
dense_1 (Dense)              (None, 128)               8320      
_________________________________________________________________
dense_2 (Dense)              (None, 256)               33024     
_________________________________________________________________
dropout_1 (Dropout)          (None, 256)               0         
_________________________________________________________________
dense_3 (Dense)              (None, 512)               131584    
_________________________________________________________________
dropout_2 (Dropout)          (None, 512)               0         
_________________________________________________________________
dense_4 (Dense)              (None, 6)                 3078      
=================================================================
Total params: 176,006.0
Trainable params: 176,006.0
Non-trainable params: 0.0
_________________________________________________________________
Train on 45543 samples, validate on 11386 samples
Epoch 1/10000
  300/45543 [..............................] - ETA: 54s - loss: 0.1922 - acc: 0.9333
…
